mission2/wandb/policy_postprocessor_step_0_unnormalizer_processor.safetensors (safetensors, 8040 bytes, 36 tensors)

action.max f4 [12]
000000 23 c8 b0 42 6f fa 2b 41 d5 d1 c7 42 00 00 c8 42
       88.39089 10.748641 99.90983 100.0
000010 f0 05 1f 41 15 94 b9 42 5d ea 78 bf 32 76 8f 42
       9.93895 92.78922 -0.9723261 71.73085
000020 00 00 c8 42 00 00 c8 42 9c c4 79 42 29 2e c6 42
       100.0 100.0 62.442 99.09016

action.mean f4 [12]
000000 d3 7e 8a 41 cf ab b5 c2 c9 fa 99 42 55 a5 61 42
       17.311926 -90.83556 76.989815 56.411457
000010 2b 92 01 c1 24 31 08 41 82 12 eb c1 53 82 5d c2
       -8.098186 8.511997 -29.384037 -55.37727
000020 35 10 29 42 b8 9b 5f 42 15 8d 44 41 71 19 03 41
       42.265827 55.90207 12.284444 8.193711

action.min f4 [12]
000000 66 f3 12 c1 00 00 c8 c2 5d b9 69 c2 bc 54 9d c0
       -9.184423 -100.0 -58.43102 -4.9165936
000010 a0 fb 91 c2 00 00 00 00 07 b3 91 c2 00 00 c8 c2
       -72.991455 0.0 -72.84966 -100.0
000020 00 00 c8 c2 c2 17 b5 c1 03 32 a0 c0 00 00 00 00
       -100.0 -22.6366 -5.006105 0.0

action.q01 f4 [12]
000000 1d 0d 77 c0 a2 c4 c7 c2 6d db 9e 40 cd e0 c1 41
       -3.8601754 -99.88405 4.9642854 24.234766
000010 98 ee 81 c2 e6 5b 93 3f 3c cc 86 c2 00 00 c8 c2
       -64.966 1.151242 -67.398895 -100.0
000020 f5 6a c3 c2 0b 39 c1 40 fc 39 dc bf 26 67 55 3f
       -97.7089 6.0382133 -1.7205195 0.8336052

action.q10 f4 [12]
000000 2e 74 e7 bf aa 68 c7 c2 c5 dc 1f 42 2a 44 02 42
       -1.808233 -99.70442 39.965595 32.566566
000010 26 cf 77 c1 6f b2 a3 3f da 8f 5a c2 ae f2 c7 c2
       -15.488073 1.2788829 -54.64048 -99.97398
000020 0c 13 94 c2 bb 6f a1 41 ed 72 06 bf 34 77 62 3f
       -74.0372 20.179556 -0.5251911 0.8846314

action.q50 f4 [12]
000000 99 2a f5 40 f0 de c6 c2 d7 5f af 42 d8 fc 6f 42
       7.66145 -99.435425 87.68719 59.996918
000010 44 ed 13 c0 97 fb d8 3f cc 5d cd c1 af bd a2 c2
       -2.3113565 1.6951779 -25.6708 -81.370476
000020 70 0f 78 42 56 aa 71 42 e1 9c e5 40 3c 49 80 3f
       62.015076 60.416344 7.1754003 1.0022349

action.q90 f4 [12]
000000 20 c5 4a 42 30 0e 69 c2 43 1f c2 42 47 17 8f 42
       50.692505 -58.263855 97.06106 71.54546
000010 3e 29 22 3f 22 8f 17 42 ee c1 26 c1 b8 c0 1e 42
       0.6334418 37.88978 -10.422346 39.6882
000020 75 7b c2 42 9e 0b a2 42 d0 dc 0a 42 7c e4 03 42
       97.24113 81.02269 34.715637 32.97313

action.q99 f4 [12]
000000 a9 26 94 42 93 23 bc c1 8d 38 c5 42 42 fd c7 42
       74.07551 -23.51737 98.61045 99.994644
000010 4a d4 04 40 59 40 87 42 a7 59 dc c0 17 41 67 42
       2.075457 67.62568 -6.885944 57.813564
000020 ea 7f c6 42 fc ff c6 42 99 b3 27 42 84 6b 94 42
       99.24983 99.49997 41.92539 74.20999

action.std f4 [12]
000000 b4 1e a9 41 c4 70 a4 41 8f 3b cb 41 c8 fb 90 41
       21.139992 20.555061 25.404081 18.12294
000010 ed 36 85 41 ad cb 8a 41 10 9e 90 41 7c 2a 5a 42
       16.65182 17.349451 18.077179 54.54149
000020 64 72 81 42 05 a2 be 41 38 9d 63 41 f3 d1 88 41
       64.72342 23.829111 14.2258835 17.102514

observation.images.front.max f4 [3, 1, 1]
000000 00 00 80 3f 00 00 80 3f 00 00 80 3f
       1.0 1.0 1.0

observation.images.front.mean f4 [3, 1, 1]
000000 ec 51 f8 3e d5 78 e9 3e 3b df cf 3e
       0.485 0.456 0.406

observation.images.front.min f4 [3, 1, 1]
000000 00 00 00 00 00 00 00 00 00 00 00 00
       0.0 0.0 0.0

observation.images.front.q01 f4 [3, 1, 1]
000000 5e 07 38 3d a9 6e 26 3d 6c 5f e7 3c
       0.0449289 0.040632877 0.028243743

observation.images.front.q10 f4 [3, 1, 1]
000000 25 00 9d 3e 97 98 97 3e ff e5 68 3e
       0.30664173 0.29608604 0.22743987

observation.images.front.q50 f4 [3, 1, 1]
000000 b3 af 09 3f 46 9d ec 3e 7d 87 ed 3e
       0.5378372 0.4621374 0.46392432

observation.images.front.q90 f4 [3, 1, 1]
000000 35 ca 63 3f 88 e5 57 3f 76 08 54 3f
       0.8898042 0.8433461 0.8282541

observation.images.front.q99 f4 [3, 1, 1]
000000 68 f9 7f 3f 27 f9 7f 3f 71 f8 7f 3f
       0.9998994 0.9998955 0.99988467

observation.images.front.std f4 [3, 1, 1]
000000 fa 7e 6a 3e 42 60 65 3e 66 66 66 3e
       0.229 0.224 0.225

observation.images.top.max f4 [3, 1, 1]
000000 00 00 80 3f 00 00 80 3f 00 00 80 3f
       1.0 1.0 1.0

observation.images.top.mean f4 [3, 1, 1]
000000 ec 51 f8 3e d5 78 e9 3e 3b df cf 3e
       0.485 0.456 0.406

observation.images.top.min f4 [3, 1, 1]
000000 00 00 00 00 00 00 00 00 00 00 00 00
       0.0 0.0 0.0

observation.images.top.q01 f4 [3, 1, 1]
000000 10 8b 39 3d d4 2f 6c 3d f7 68 31 3d
       0.045298636 0.0576628 0.043312993

observation.images.top.q10 f4 [3, 1, 1]
000000 3e 51 fd 3d 98 62 13 3e a6 6b fd 3d
       0.12369011 0.1439308 0.12374048

observation.images.top.q50 f4 [3, 1, 1]
000000 cc 0c 0d 3f ce 28 13 3f 14 92 04 3f
       0.5509765 0.5748414 0.517854

observation.images.top.q90 f4 [3, 1, 1]
000000 07 d4 30 3f c8 99 31 3f 8e 9f 38 3f
       0.6907353 0.69375277 0.7211846

observation.images.top.q99 f4 [3, 1, 1]
000000 09 cc 4c 3f ce da 59 3f 17 66 65 3f
       0.7999883 0.85099494 0.896089

observation.images.top.std f4 [3, 1, 1]
000000 fa 7e 6a 3e 42 60 65 3e 66 66 66 3e
       0.229 0.224 0.225

observation.state.max f4 [12]
000000 3a fc af 42 5e 6a 30 41 ee 5f c6 42 c1 c8 c6 42
       87.99263 11.025969 99.18736 99.3921
000010 8c c5 18 41 00 00 b9 42 b8 70 e1 bf 58 31 85 42
       9.548229 92.5 -1.7612524 66.596375
000020 b9 f3 c4 42 56 96 c5 42 74 3a 77 42 58 0d c0 42
       98.47602 98.793625 61.807083 96.02606

observation.state.mean f4 [12]
000000 c3 a6 89 41 5c fe b4 c2 2e b3 9b 42 af 9d 62 42
       17.206427 -90.496796 77.84996 56.653988
000010 f2 99 01 c1 7a 46 09 41 a8 8a eb c1 f4 75 57 c2
       -8.100084 8.579706 -29.442703 -53.86519
000020 a7 79 33 42 ab d8 60 42 92 44 46 41 84 0c 15 41
       44.8688 56.21159 12.391741 9.315556

observation.state.min f4 [12]
000000 68 7d 0a c1 a1 51 c7 c2 47 bf 5f c2 5a 2e a1 bf
       -8.655617 -99.65943 -55.936794 -1.259227
000010 99 97 91 c2 83 29 72 3f be 7b 8f c2 1d 50 c6 c2
       -72.79609 0.9459459 -71.741684 -99.15647
000020 82 1a c7 c2 eb 19 a5 c1 d7 70 8d c0 4b c2 8d 3f
       -99.55177 -20.637655 -4.4200244 1.1074919

observation.state.q01 f4 [12]
000000 da 08 77 c0 8c 05 c7 c2 2f 8f d7 40 8b d5 c8 41
       -3.8599153 -99.51083 6.7362285 25.104269
000010 45 e7 81 c2 95 08 af 3f 81 cc 85 c2 2e c6 c5 c2
       -64.9517 1.3674494 -66.89942 -98.88707
000020 b6 86 bf c2 ed 7a f9 40 9b 67 a5 bf 75 5c b1 3f
       -95.76311 7.7962556 -1.2922243 1.3856341

observation.state.q10 f4 [12]
000000 c5 f9 ee bf 70 d7 c6 c2 21 8c 23 42 b9 48 04 42
       -1.8669974 -99.42078 40.886845 33.07102
000010 a1 bd 76 c1 6b 3b bb 3f eb fe 58 c2 a8 b6 c5 c2
       -15.421296 1.4627508 -54.248943 -98.85675
000020 07 e0 8a c2 06 1b a7 41 1f 11 2f be bc c6 c1 3f
       -69.43755 20.888195 -0.17096375 1.5138774

observation.state.q50 f4 [12]
000000 48 b9 f5 40 4c 3c c6 c2 c1 9b b0 42 ad 4e 71 42
       7.6788673 -99.11777 88.30421 60.32683
000010 69 81 18 c0 cd 14 e4 3f a7 2f d0 c1 38 32 a1 c2
       -2.3828986 1.7818848 -26.023268 -80.59808
000020 9e d0 81 42 fe e4 70 42 e8 1e e7 40 1c b0 f9 3f
       64.907455 60.223625 7.2225227 1.9506869

observation.state.q90 f4 [12]
000000 e2 ce 49 42 93 45 66 c2 50 e8 c3 42 e0 56 8f 42
       50.452034 -57.567944 97.953735 71.66968
000010 0f b7 21 3f d5 52 16 42 fd 35 2a c1 a4 c8 2c 42
       0.6316995 37.58089 -10.638181 43.19594
000020 8d d4 c2 42 7d 1a a2 42 49 d6 0a 42 cf be 04 42
       97.41514 81.051735 34.709263 33.186337

observation.state.q99 f4 [12]
000000 cd ca 93 42 62 f5 b9 c1 48 3a c5 42 cb c5 c6 42
       73.896095 -23.244816 98.61383 99.386314
000010 98 73 f9 3f 17 98 86 42 24 4c ec c0 c7 e2 6c 42
       1.9488401 67.29705 -7.3842945 59.221462
000020 43 e8 c3 42 ab d2 c4 42 28 9f 25 42 63 56 8e 42
       97.953636 98.41146 41.405426 71.168724

observation.state.std f4 [12]
000000 9c 76 a8 41 ec 60 a5 41 ad cd c9 41 18 3f 8f 41
       21.057915 20.672325 25.225428 17.905807
000010 15 72 85 41 db fd 88 41 74 2b 8e 41 31 60 5d 42
       16.680704 17.123953 17.771217 55.343937
000020 3d b6 7e 42 bc 71 b9 41 3e 7e 61 41 53 d5 81 41
       63.677967 23.180534 14.093321 16.229162
